…
l with Bi_LSTM Model. from kashgari.corpus import ChineseDailyNerCorpus from kashgari.tasks.labeling import BiLSTM_Model train_x , train_y = ChineseDailyNerCorpus . load_data ( 'train' ) test_x , test_y = ChineseDailyNerCorpus . load_data ( 'test' ) valid_x , valid_y = ChineseDailyNerCorpus . load_data ( 'valid' ) model = BiLSTM_Model () model . fit ( train_x , train_y , valid_x , valid_y , epochs = 50 ) \"\"\" _________________________________________________________________ Layer (type) Output Shape Param # ================================================================= input (InputLayer) (None, 97) 0 _________________________________________________________________ layer_embedding (Embedding) (None, 97, 100) 320600 _________________________________________________________________ layer_blstm (Bidirectional) (None, 97, 256) 235520 _________________________________________________________________ layer_dropout (Dropout) (None, 97, 256) 0 _________________________________________________________________ layer_time_distributed (Time (None, 97, 8) 2056 _________________________________________________________________ activation_7 (Activation) (None, 97, 8) 0 ================================================================= Total params: 558,176 Trainable params: 558,176 Non-trainable params: 0 _________________________________________________________________ Train on 20864 samples, validate on 2318 samples Epoch 1/50 20864/20864 [==============================] - 9s 417us/sample - loss: 0.2508 - acc: 0.9333 - val_loss: 0.1240 - val_acc: 0.9607 \"\"\"
…
